model/best_model_weights/LeNet_best_weights.pt (torch, 249927 bytes, 10 tensors)

conv1.weight f4 [6, 1, 5, 5]
00000000: 0019 15be 4906 a73e 66e3 2c3f 0a4a 003f
00000010: 9aed f53e 8af5 68be 96b5 bf3d e40e eb3e
00000020: c62b b33d 7bf9 e33d cd34 15be 82d9 c53c
00000030: 7588 cc3c 3d96 993e f0ae 403d 9e16 04be
00000040: 7f93 0a3c 7ef1 ca3d 6346 8fbd 93d7 e3bd
00000050: f84e c4be f3e5 3bbe 5731 26be 8649 3dbe
00000060: 670d 3abd 1cca 0cbf 72a9 ecbd b431 fa3e
00000070: 2d87 163f 9db9 0b3f 9f85 75be d229 183e
00000080: 51d3 f63e a768 eb3e 11fe bb3d c9e6 f2be
00000090: 3f39 1ebe 1c7f a43d b1b1 913d 61df 173e
000000a0: 63b0 0bbf e669 53be dd0a 2fbd c0e6 9b3e
000000b0: 9427 d13d bd17 efbe cc2f 01be cde6 1a3e
000000c0: cbb7 7e3e 3a1f 203e 0f6a 853d 39f6 5dbe
000000d0: 6b02 cbbb 5b42 9c3e 6d5b c53e cf25 ad3d
000000e0: 589c cbbe 0a35 07be 4eea ba3d 4d70 b03d
000000f0: b607 08bd 08e9 13bf d6b5 0ebf 3cbf 65be
00000100: a5ce 5f3d 1f2e 02bc 1a7e 83bf 4c5b 20bf
00000110: 7cd9 c1be 680e 10be c9e3 a13e 63f2 3fbf
00000120: 2e02 e8be 9bbc afbe 9e14 9fbe f925 2fbf
00000130: dda1 26bf 3c97 4dbd 60b7 023d 216e 1d3e
00000140: 9a2a 2ebf 6bfa 9fbe 03c7 c43d ccc8 903e
00000150: 1e47 263e 6325 07bf bd51 a3be f2d8 303e
00000160: e706 b53e 7e4d 033e f0c7 e8be be67 88bd
00000170: 4342 cd3e 5b41 9f3e ff8f 553e f4ff d0be
00000180: a4ad 3ebe 82f2 9b3d 7559 b43e a813 cfbc
00000190: 430e 813e 9cf4 0d3f 5148 713e 37bf a53e
000001a0: ec85 023f 6c99 033f a4ae a53e 8015 ad3e
000001b0: 8ea4 c23e c800 523e 440e 3e3e 253a 383e
000001c0: 531e 083f 5537 053f a245 953e b433 003e
000001d0: 496d cf3e e2ae 343f 8a70 ab3e cd67 b23e
000001e0: 17b7 933e defd 813e f125 d03e 480c 123f
000001f0: 3688 f13b b6d0 5bbf e9b1 3dbf 66f1 0fbf
00000200: 92af acbe e318 97be 0472 87bf b79a 67bf
00000210: 6ea4 40bf 6363 12bf c083 9ebe e641 49bf
00000220: 1f00 07bf 9b10 12bf d587 98be f1ae fe3d
00000230: f66d b9bd 0ac7 4abd 0abf 49bd 19b5 3a3e
00000240: 06cb 9a3d 3cff 44be cd00 c73d 18ac 963d
00000250: 72db cf3d 3362 8e3d
-0.14560318 0.32621983 0.6753448 0.50112975 0.48032838 -0.22749916 0.09360807 0.45909798
0.087485835 0.11131569 -0.14570923 0.024151567 0.024967412 0.29997435 0.047041833 -0.12899253
0.008458017 0.09909342 -0.06995847 -0.11125102 -0.38341498 -0.18349437 -0.16229759 -0.18485078
-0.045422938 -0.54995894 -0.11555757 0.48866045 0.5880001 0.545801 -0.23976754 0.14859703
0.48208097 0.4597828 0.09179319 -0.474417 -0.15451525 0.08032057 0.0711397 0.14831306
-0.5456602 -0.20645866 -0.04273497 0.30449486 0.10212627 -0.46697798 -0.1261589 0.15127106
0.24874799 0.15636912 0.0651437 -0.21675958 -0.0061953566 0.30519375 0.38546315 0.08454477
-0.39767718 -0.13203827 0.09126721 0.0861517 -0.03321048 -0.5777745 -0.5574621 -0.22436231
0.05464043 -0.007945566 -1.0272858 -0.6263931 -0.3786124 -0.14067996 0.316191 -0.7497923
-0.45314163 -0.34323582 -0.31070417 -0.68417317 -0.65090734 -0.050193056 0.03191316 0.15374042
-0.68033755 -0.3124574 0.09608271 0.28278196 0.16238067 -0.5279142 -0.318983 0.17270258
0.3535683 0.1282253 -0.4546504 -0.06660412 0.40089616 0.3110455 0.20855711 -0.40820277
-0.18620926 0.07614614 0.352245 -0.025277928 0.25206193 0.5545137 0.23562743 0.32372448
0.509856 0.5140598 0.32359803 0.33805466 0.3801617 0.2050811 0.1856013 0.1799093
0.5317127 0.52037555 0.29154688 0.12519723 0.40513065 0.7057935 0.33484298 0.3484482
0.28850624 0.25388998 0.40653947 0.5704999 0.007370974 -0.8586534 -0.74099594 -0.5622772
-0.337277 -0.29511175 -1.058167 -0.9047045 -0.752509 -0.571829 -0.30959892 -0.7861618
-0.5273456 -0.5705659 -0.29791132 0.12435711 -0.090541765 -0.049506225 -0.049254455 0.18233146
0.07558255 -0.19237989 0.097169496 0.07357043 0.10149278 0.06952324

conv1.bias f4 [6]
00000000: 3d31 0ebe 25f5 3bbe e14a 373e 482a 3b3e
00000010: e68c 0d3d a93a e83d
-0.1388597 -0.18355234 0.17899658 0.18277848 0.0345582 0.113393135

conv2.weight f4 [16, 6, 5, 5]
00000000: b2b8 3cbc ae99 ed3d 7667 8cbd 43e7 a0bd
00000010: f78e 68bd 7306 debc 7ea6 73bc d6c8 eabc
00000020: 6dd0 673d ec4d 24bd 8cd8 4d3e f957 a03c
00000030: 4be6 d83c 56d7 01be 286f 68be 850a 183e
00000040: 2a3e 8f3d 7143 9dbd c396 07be 368a e53c
00000050: f734 213e 45df 8b3d 96d1 09be 022b 16bc
00000060: 804f 913d c62c 073e 8fe8 933d c5c9 98bd
00000070: f335 89bd 381f 11be a962 783e 7614 e23c
00000080: b80f a23c 6d6f 59bc 8666 4e3c bbb3 3b3e
00000090: 335d c4bc 02c1 17bd 6e71 51be 2f27 3fbe
000000a0: 86d1 a73d b615 1e3d a55b 05be 4ed7 7ebd
000000b0: 1532 f6bd 89be 9d3c dfb5 e8bd f37b 7ebd
000000c0: f7fe 94bc 5060 9c3d df25 5abd a44a 20be
000000d0: 6e6d ecbd 3f8f 29bd a550 e33d 2b68 c63d
000000e0: 7cfe 8dbe c361 e8bb f035 ad3d 774d 193e
000000f0: 1fa0 10be 9bbf 46be 8fc2 bebb bcdf 773d
00000100: b552 4c3d a6cf 18bd 234a d43a 5fa1 703c
00000110: 10c7 273d 272d bcbd 6d4a 26be 42d9 033d
00000120: affa 643d 392e cf3c 1d09 2b3d 18ba 873e
00000130: ac4f 29bd 028e 60be 7ff4 97bd 22c8 b1bd
00000140: d97e 233e 56d0 f6bd df07 31be 70fb 35bc
00000150: c6ee ffbc d21c c63d 417e 46be 276a 2fbe
00000160: 70ff 2c3d 7b6d ee3d a065 c43c 1445 d9bd
00000170: eb70 d2bd a52f 833c ee2b c03d c54f c23d
00000180: a198 55be 871a 0c3d bdbc c73c 43d4 63bd
00000190: ce9b 41bb 0bf7 ea3c e275 b03d f8e5 673d
000001a0: 5079 58bd 5ad9 883d 5a8c 523e 17f4 e93d
000001b0: 0ad9 483d f434 a4bd ccac f03d 56c5 383e
000001c0: 9c70 8f3d 8ea5 803d d5fb f0bc 0068 313e
000001d0: e3f1 9f3c bd0a 973d 5516 7bbd eb22 92bc
000001e0: caaf af3d 2f68 893d 6c7e e1bd 2b07 6dbd
000001f0: 7a9d 193c 6144 503e 92a9 ecbd 53a6 02be
00000200: 4df8 22bd cf5a 313d 1b18 823c 77e0 1ebe
00000210: 7a80 06be 9c51 d4bd b106 9b3d a0fa bd3d
00000220: deeb 293c cea5 a1bb 7583 bf3d 52fd b23d
00000230: b123 a03c 3b90 0fbe 2a69 ee3d 4cfa 413e
00000240: 0233 3f3e 870d af3d b856 c9bd cf5a 5a3d
00000250: b148 a03d 411d 68bd 0ca3 c5bc 5a87 943d
00000260: 1e98 3f3d 828a 0ebd 4359 8dbd a526 b1bc
00000270: c3eb 99bc 3fef 743d 99ae 883c 3b8f 47bc
00000280: e512 57bd b897 16bc 2645 653d 06dd e13b
00000290: 4ae8 8cbd a663 2c3d fc70 7b3c 2b0b 8fbd
000002a0: 291d 87bc a5dd 7e3d ab7e e4bd 6ef3 42bd
000002b0: 5cbd 51bd f16e 50bb 5766 54bd 38c4 7eba
000002c0: a17f f2bc 6c45 683d 73a0 9cbd 428b 66bd
000002d0: 8241 d9bc e5f3 3bbd d05d 1cbc 3a9a fb3d
000002e0: b51a 34bc 1028 7cbb 0dbf bbbd 1cad fabc
000002f0: be94 143c dea0 29be 0cc6 82bc cb31 27bb
00000300: f843 7bbb 885c d53b 46a3 483d 4d0f e03c
00000310: 4605 e93b de50 8a3c 59d2 76bd ee8c 0d3d
00000320: 58cb 1dbb a69d 15bb d3ec e5bb 81c1 90bd
00000330: 1378 09bd dd1b acbd 1c3d 61bd 8487 3ebd
00000340: 2224 9aba 6940 c43c 01fd 9e3c 0d9b 903a
00000350: 5d16 3fbe 8232 1ebd a26c a0bc 986e e83c
00000360: 24f1 843d 8921 dd3d ed32 95bd 8198 583d
00000370: 348b cdbd 8691 81bd c3c3 0cbd 9b4c 3cbd
00000380: 751d 753c ca2c 22bd 1b86 9ebd 007b 603d
00000390: 2417 8fbd 5911 afbd 2421 453d 592c 10be
000003a0: 3b4f dcbd 635d ac3c 8fb4 fcbc 6cfa 88bd
000003b0: 2c33 33bd c216 213d 0ab1 06be 07b8 6fbd
000003c0: 3106 a7bc 8122 efba 646a 073c 11e1 bfbd
000003d0: 5528 323d d8fa 203d 6abb a2bd 0b2a 6c3d
000003e0: 1b4c 1d3d c964 b3bd 0ff6 dabd 3494 88bd
000003f0: 1b04 8cbd 5086 1abd 05ee 8c3d 9f54 b2bd
-0.011518644 0.11601578 -0.06855671 -0.0785661 -0.056776967 -0.027102685 -0.014871238 -0.02866022
0.056595255 -0.040113375 0.20102137 0.019573199 0.026477 -0.126798 -0.22698653 0.14847763
0.06994279 -0.07678879 -0.13241105 0.028020006 0.1574286 0.06829695 -0.13458857 -0.009165527
0.070952415 0.13200673 0.072220914 -0.074603595 -0.06699743 -0.14172065 0.24256386 0.027597647
0.019782886 -0.013271195 0.012597686 0.1833028 -0.023970222 -0.0370493 -0.20453426 -0.18667291
0.0819426 0.038594924 -0.13023241 -0.06221705 -0.12021271 0.019255893 -0.11362814 -0.062129926
-0.018187983 0.07635558 -0.053258773 -0.15653473 -0.115443096 -0.041396376 0.11099366 0.09687837
-0.2773322 -0.007091732 0.084575534 0.14970957 -0.14123581 -0.19409029 -0.005821533 0.060516104
0.049883563 -0.037307404 0.0016196411 0.014686911 0.040961325 -0.091882996 -0.16239329 0.032189615
0.055903133 0.025290595 0.041756738 0.26509166 -0.041335747 -0.21929172 -0.07419681 -0.086807504
0.15966357 -0.12051456 -0.17288159 -0.011107311 -0.031241786 0.09673466 -0.193841 -0.17130338
0.04223579 0.116419755 0.02397424 -0.10608879 -0.10275444 0.01601393 0.09383379 0.09487871
-0.20859005 0.034204986 0.02438199 -0.05562235 -0.002954233 0.028682252 0.08616234 0.0566158
-0.052850068 0.066820815 0.20561352 0.114235096 0.04903511 -0.080179125 0.117517084 0.18044028
0.070039004 0.06281577 -0.029416958 0.17324829 0.01952452 0.07375095 -0.061300594 -0.017838916
0.08578451 0.067093246 -0.11010441 -0.057868164 0.009375924 0.20338584 -0.115557805 -0.1275876
-0.03978758 0.043299492 0.015880635 -0.15515314 -0.13134947 -0.10367128 0.07569636 0.092763186
0.0103711765 -0.0049330955 0.09351245 0.08739723 0.019548269 -0.14019863 0.11641152 0.18943137
0.18671802 0.08547502 -0.098309934 0.053309258 0.07826365 -0.056668524 -0.024125598 0.07252379
0.04677593 -0.03480006 -0.06901791 -0.021624872 -0.018789178 0.059798475 0.016684817 -0.012180145
-0.052508254 -0.009191446 0.05597415 0.006892803 -0.06880243 0.04208722 0.015346762 -0.06984552
-0.016493397 0.062223095 -0.111569725 -0.047595434 -0.051205978 -0.0031804407 -0.05185541 -0.000971857
-0.029601874 0.05670683 -0.07647791 -0.05628515 -0.026520494 -0.045886893 -0.009543851 0.12285276
-0.010992696 -0.0038476028 -0.091672994 -0.030600123 0.009068666 -0.16565272 -0.015963577 -0.0025511857
-0.0038340073 0.0065112747 0.048983835 0.027351046 0.0071112243 0.016884264 -0.060259197 0.03455823
-0.00240775 -0.0022829561 -0.007016757 -0.07068158 -0.033561777 -0.08403752 -0.05498992 -0.046515957
-0.0011760036 0.023956494 0.019407751 0.0011032537 -0.18660875 -0.038622387 -0.01958305 0.028373048
0.064913064 0.10797412 -0.07285104 0.052879814 -0.100363165 -0.063265845 -0.03436638 -0.045971494
0.014960636 -0.039593495 -0.07740422 0.054804802 -0.069868356 -0.08548231 0.04812731 -0.14079417
-0.107572995 0.021040624 -0.030847816 -0.06688389 -0.043749973 0.039328344 -0.13153473 -0.05852511
-0.020388694 -0.0018244536 0.008265112 -0.093691 0.043495495 0.039301723 -0.07945903 0.057657283
0.038402658 -0.087594576 -0.10691463 -0.066688925 -0.068367206 -0.037725747 0.06881336 -0.087075464

conv2.bias f4 [16]
00000000: 2f94 db3d cdcc cc3d a767 803d 6d1c b23d
00000010: a780 c03d 8305 973d eca1 b63d 1dc1 8a3d
00000020: cc94 cd3d 0d63 bd3d d539 c03d 6679 a73d
00000030: cdcc cc3d 5188 b13d 0428 b43d c4c5 b83d
0.10721623 0.1 0.0626977 0.08696828 0.093995385 0.07374098 0.08917603 0.06775115
0.100381464 0.09247408 0.093860306 0.08177452 0.1 0.086685784 0.08796695 0.09022096

conv3.weight f4 [120, 16, 5, 5]
00000000: 47a1 21be 5cc5 8fbd f148 173d d73c 733d
00000010: 213e 8b3d 0ed4 28bd d803 cabd 2d06 8abd
00000020: b398 bb3d 702c e33c dffb e13b 8d79 0dbd
00000030: ce1e 10bd d5f4 2c3c 0150 cb3c 6d9e 873d
00000040: 2f1e 14bd 0711 5dbd 2728 91b9 05a6 483d
00000050: 38b1 af3d 3b74 0a3d 8893 1bbd b98b 5a3d
00000060: 8c26 ad3d 67d1 20bd c1c6 433d 5e79 3dbd
00000070: 6975 243b 6348 12bd 4384 8a3b f58c 443c
00000080: 4e3e a83c 9833 cc3c 1b93 9fbc 7349 cabc
00000090: d59e 0e3d 0efb 07bd ed39 373c b886 3f3d
000000a0: 1959 27bb fc12 29bc 69e6 d73c e722 b53c
000000b0: 6baf 343c 0c68 203b 161e 273c 0401 d23b
000000c0: e8f5 3c3d bed2 e1bb 84c3 4d3e 1ecc c63d
000000d0: 1f7e 9abc e92e 5a3e 3fdb 2b3d b773 bd3d
000000e0: 1dd7 85bd 3557 b2bd a5a8 2cbd 1aef 94bc
000000f0: 0fc3 123e 5648 b13b ec28 42bc 1f78 adbd
00000100: c95d 14be 348a 583d 3813 273a 64ad 41bd
00000110: f6d1 2fbe 5fb0 e9bd 40ab f8bd cefb 863d
00000120: 3fb6 433d 1c82 a1bd 88bb f7bc e010 45bc
00000130: 5e41 ac3b 7109 e8bc 63b1 a9bb 1521 69bd
00000140: e3c5 95bc 4004 a5bc b63e cd3c 745d 3fbc
00000150: bd4d 50bb 5e12 16bd 2830 27bd ffbf c73c
00000160: 9f73 6fbc a6bb 26bd c3b0 37bc 2168 51bd
00000170: ea03 45ba fd30 4cbd 68d4 a73b 2e71 9a3a
00000180: ee75 75bc d606 373c 4ed4 79bd 50bf b53c
00000190: 8822 63bc 5c97 ecba fb55 0d3d bda2 17bc
000001a0: 5370 8bbc 657b 843c 4119 bd3c 828c 393d
000001b0: 4726 47bc 3d6b 2f3c bd1e be3c 7647 5dbd
000001c0: ed7d 04bd e0ae 193b 1ee3 ffbc 48ce 8ebd
000001d0: ee2f 103c 0148 f5bc 08ca 81bc 2b3d 71bc
000001e0: 5af4 cf3c 515a 07bc 2d34 cab9 c11d 4cbb
000001f0: 0105 89bc a13a 6f3c 59fb 003d 0942 e1bb
00000200: 9fa8 53bd 0b6c e03c e1d2 15bd ed2f fa3c
00000210: b45a 2bbc f7d6 1f3d 3eb3 df3b 43ff 293b
00000220: 147d 723c 8530 adbc d96d 95bc 3021 df3c
00000230: f418 f53c 1e3b 6a3c cc13 eabc e06d 1c3c
00000240: e2c1 063b b6e2 51bd 2992 b83a 12b3 fbbc
00000250: 9232 ca3c 8299 9d3c 123f 893c 39e3 44bd
00000260: ca9f 0ebc 0f7c 7fbc 31d4 8a3c 64a0 0dbc
00000270: a598 093c 3afa 3f3c d717 1c3c b47c 4fbc
00000280: 6d5d 84bc e603 00bd 7578 6bbc b939 3ebc
00000290: f041 a73c 3867 39bc a822 12b9 94c9 f13c
000002a0: 8003 9fbb 1abf 6fbc db15 b43b 1826 0abd
000002b0: f9a0 4c3d a1b8 c3bc f23d 26bc 3d1f 09bd
000002c0: 8034 e43c 6244 06bc cbb3 4c3a e4b2 9b3d
000002d0: 933e 23bd 1dab f63c e349 e13c 55f3 3fbc
000002e0: 5b80 a63c a8a8 7dbd 24f0 673c 14bf 393d
000002f0: dad8 be3c 2e28 6d3d f500 f03b a192 693c
00000300: b498 02bd ca9c 473d a57a b83c 0773 b43c
00000310: c6f0 75bc 5937 f7ba c7ba 2d3d c671 dbbb
00000320: e2ef babd 5486 87bd 1d49 763c 6eec b5bc
00000330: 8fde 8dbc 818f c9bd 2ecb 60bd 9652 573d
00000340: 568f 5d3d 7cda 4e3d 1669 b1bc cb6b 90bc
00000350: 0a84 f2bb a873 a73d 15e1 8a3d f896 453d
00000360: 7ec8 283d 4f5f 3bbc 6e2d 6d3d 36ca 813d
00000370: ed01 b13c 6ac9 303d 3ee0 17bd dd0e b5bc
00000380: 204c c3bb 0c7b de3c 10ba edbb 5ad4 7ebc
00000390: db08 053d 15da 26bb 47b3 d43c b76d 9dbc
000003a0: 3719 2d3c d6b4 a6bc d879 873c dcd3 f73a
000003b0: 7852 c7bc b4c1 ff3b d1ff 36bd 7e3f 283d
000003c0: 103d 23bd 2b7c 8b3c 1ad1 8cbb 293e 92bc
000003d0: 7fe9 95bc 4c5b ad3c 7030 8d3b cc35 303b
000003e0: e78a 1dbd f40c 053c a7f6 e4bc a6c5 70bb
000003f0: de17 b63c 35f8 4fbc 4591 163c 23c0 1bbd
-0.15784179 -0.07020065 0.036934797 0.059384193 0.067989595 -0.041217856 -0.098640144 -0.06739459
0.091599844 0.02773115 0.0068964805 -0.034539748 -0.035185628 0.010556419 0.024818422 0.06622014
-0.036161598 -0.053971317 -0.0002768647 0.048986454 0.08578724 0.033802252 -0.037982494 0.053355906
0.08454618 -0.0392622 0.04779697 -0.046258323 0.0025094396 -0.035713565 0.0042271926 0.011996497
0.020537522 0.024926946 -0.019479325 -0.024693226 0.034819443 -0.03319841 0.011183244 0.046759337
-0.0025535284 -0.010319468 0.026354985 0.02211137 0.011028151 0.002447608 0.010200044 0.0064088125
0.046132952 -0.0068915775 0.20094115 0.09706901 -0.018858967 0.21306957 0.041957136 0.092505865
-0.0653517 -0.0870804 -0.04215302 -0.018180419 0.14332221 0.0054102344 -0.011850577 -0.08470177
-0.14488901 0.052866176 0.0006373408 -0.0472845 -0.17169937 -0.11410593 -0.12142038 0.06590997
0.047781225 -0.078861445 -0.030240789 -0.012027949 0.005256816 -0.028324815 -0.005178617 -0.056916315
-0.018282836 -0.020143628 0.025054317 -0.011679996 -0.0031784617 -0.03663861 -0.04081741 0.024383543
-0.014614969 -0.0407063 -0.011211577 -0.051124696 -0.0007515537 -0.049851406 0.0051217563 0.0011782998
-0.01498173 0.011171063 -0.060993485 0.022185951 -0.013863213 -0.001805048 0.034505825 -0.009255108
-0.017021334 0.01617212 0.023083331 0.045300014 -0.012155122 0.01070672 0.023208017 -0.05402323
-0.032346655 0.002345018 -0.031236228 -0.06972939 0.00880049 -0.02994156 -0.015843406 -0.014724056
0.02538507 -0.008261279 -0.00038567316 -0.0031145664 -0.016726019 0.014601381 0.031489704 -0.006874327
-0.05167448 0.027395269 -0.036578063 0.03054043 -0.010458637 0.039023366 0.0068267873 0.0025939501
0.014800329 -0.0211413 -0.018240856 0.027237505 0.029919125 0.014296321 -0.028573893 0.009547681
0.002056234 -0.0512416 0.0014081645 -0.030725036 0.024682317 0.019238237 0.016753707 -0.04806826
-0.008705089 -0.015593543 0.016946884 -0.008644197 0.00839821 0.0117173735 0.009527168 -0.012664009
-0.01615783 -0.031253718 -0.014371981 -0.011610442 0.020417184 -0.011316113 -0.00013936555 0.029515065
-0.004852712 -0.0146329645 0.0054957694 -0.033727735 0.049958203 -0.023891749 -0.010146605 -0.033477057
0.027857065 -0.008195015 0.00078087737 0.0760248 -0.039854597 0.03011089 0.027501052 -0.01171573
0.020324877 -0.06192842 0.014156375 0.045348242 0.023296762 0.057899646 0.007324333 0.01425615
-0.03188391 0.04873351 0.022519419 0.022027506 -0.015011018 -0.0018861099 0.042414453 -0.0066969125
-0.09127785 -0.06617418 0.01503208 -0.022207465 -0.017318038 -0.09841824 -0.054881267 0.052568994
0.054091774 0.05050133 -0.021656554 -0.017629525 -0.007400994 0.081763566 0.06781212 0.04823968
0.04120683 -0.011436298 0.057904653 0.06337397 0.021607364 0.043160833 -0.03707909 -0.022101814
-0.0059600025 0.027158283 -0.0072548464 -0.015553558 0.03247915 -0.0025459577 0.025964392 -0.019217355
0.010565094 -0.020349901 0.016537592 0.0018907744 -0.024331316 0.0078050736 -0.04467756 0.041076176
-0.039853156 0.017026981 -0.004297388 -0.017851906 -0.018299816 0.021161698 0.0043087527 0.0026887534
-0.038462546 0.008120764 -0.027949644 -0.0036738901 0.022228178 -0.0126934545 0.009189908 -0.038025033

conv3.bias f4 [120]
00000000: 1d48 a43d 52dc b23d 7d5c dc3d cfd7 663d
00000010: ea84 cc3d 0852 b93d bf62 e43d 5b37 513d
00000020: 5736 da3d 4bb4 db3d c35d 133e 3d22 f83d
00000030: fbee ab3d 6dc7 bb3d b03c 1d3e 052f 133e
00000040: 2cb5 8f3d f668 9b3d 2150 c83d dec8 9f3d
00000050: bd94 423d 9c9b db3d 3e20 6d3d 5e84 f33d
00000060: 0312 003e 5fbf 2c3e ece2 043e d3fd 9d3d
00000070: 72c3 b13d d50d c13d 42b0 ec3d 36f8 073e
00000080: bcd6 8b3d b753 643d f4ce f63d 9479 af3d
00000090: 0ed6 033e 21c7 be3d 6941 c43d 9021 a63d
000000a0: c128 1a3e 8c1d 0c3e 19e5 bf3d b2ae 1b3e
000000b0: 3a54 be3d 3556 ca3d efc2 0f3e 0b3f 893d
000000c0: fb95 7f3d aed0 d73d 7f84 e13d d47c 753d
000000d0: 0c5b f33c dfaa 0a3e e1a9 1c3e 0db8 5a3d
000000e0: 27c6 6f3d 2664 b43d 6de9 7a3d 9c98 8c3d
000000f0: 588e 053e 8cd8 163e a270 e23d 43db ae3d
00000100: da0a dc3d 15ef f23d a50b 303e 70dc fb3d
00000110: 43c5 a83d 0ac6 aa3d 98e3 083e 9bdc 003e
00000120: 6374 a53d ceb4 eb3d e634 023e e85c ad3d
00000130: 2a99 b83d 02d6 083e 591c eb3d f61a 193e
00000140: 32dc 813d 43b2 0e3e 86e7 dd3d 69e0 183e
00000150: 170c 683d 93fd 003e 249d 173e 8904 d43d
00000160: c1ec ae3d b918 cd3d 35a0 143e 2650 873d
00000170: cc6a c73d 33b4 153e 11ff a23d 22e8 5f3d
00000180: 5b63 113e 7f81 0d3e 7208 693d 71e5 af3d
00000190: af01 de3d 148c 0e3e 2fc8 ed3d 6faa c43d
000001a0: ed42 bb3d 6822 063e 6545 c13d eecd 0a3e
000001b0: 84a2 0a3e de0b ed3d f248 0e3e 0914 b33d
000001c0: 4745 153e e6e7 fc3d a98d d83d 096a 823d
000001d0: 678f 093e e858 2b3d 2ed1 e93d de4d b63d
0.08021567 0.08733429 0.10759828 0.056358155 0.09986289 0.09048849 0.11151647 0.05107818
0.10654896 0.107277475 0.14391236 0.121159054 0.08395191 0.09168897 0.15355182 0.14373405
0.07016978 0.07588379 0.097809084 0.07801984 0.04750513 0.107230395 0.057892077 0.118904814
0.12506871 0.16869877 0.12977189 0.07714429 0.08679856 0.094264664 0.11557056 0.13278279
0.06828067 0.0557439 0.12051192 0.08568111 0.12874624 0.093153246 0.095827885 0.0811187
0.15054609 0.13683146 0.09369869 0.1520336 0.09293409 0.09879724 0.14039205 0.067014776
0.062398892 0.10537849 0.110116 0.0599335 0.0297065 0.13541745 0.15299179 0.05339818
0.058538582 0.08808164 0.06125777 0.068650454 0.13042581 0.14731044 0.11056639 0.085379146
0.10744257 0.118620075 0.17191942 0.122979045 0.0824075 0.08338554 0.1336807 0.12584154
0.0807884 0.11509095 0.12715492 0.08464986 0.09013589 0.13362888 0.11480016 0.14951691
0.06340827 0.13935189 0.10835175 0.14929356 0.056652155 0.12596731 0.14806038 0.103524275
0.08541251 0.10014481 0.14514239 0.06607084 0.09737167 0.14619522 0.07958806 0.05466474
0.14198057 0.1381893 0.05689282 0.08588684 0.10840165 0.13920623 0.116104476 0.0960282
0.091436245 0.13099062 0.09437064 0.13555118 0.13538557 0.11574529 0.13895014 0.08744056
0.14577208 0.123489186 0.105738945 0.06367881 0.1343361 0.041832834 0.11416851 0.08901571

linear1.weight f4 [84, 120]
00000000: 9ed6 8c3d 418f 3c3e d7ed 0d3d e825 523d
00000010: bbc7 973d bc2f 123d 78a3 553d 596e 003e
00000020: 8c34 7f3e 4ba1 71bc 87cb 3d3d 2f25 3dbd
00000030: ecd6 95bd d202 253d c4d4 7b3e 474a 483d
00000040: 904a 68bd ddaf b13d 6ed3 393d f9a8 af3c
00000050: 3b47 f4bd 5865 433e 2059 c8bd 3428 7e3d
00000060: e28f a93e 83e4 a83e 1afa 0b3e ab00 03be
00000070: 47d6 953d 6bae ee3d 3800 323e 9f4d 143e
00000080: 51ab 24be e2e3 90be 8c67 b23d 2342 dabc
00000090: 2217 343e a6f0 cdbd e38b 4b3d c95d 05be
000000a0: a8ab 8f3d 50c0 3a3e d428 513d 2c02 883d
000000b0: 6cc4 e1bd bbf8 12be 7f56 513e abd9 72bd
000000c0: 1376 10be 52e1 1abe 225d 773e c23c 133d
000000d0: 3820 71bd 4225 fc3d 8993 f13d b6fd 6abe
000000e0: 3d51 e5bd 819c 00be eb48 35bc b9fa 60bd
000000f0: 6f73 843d 3edb b0be a17d ccbd b6c9 973d
00000100: 4a25 15be e800 92bd d836 d43d 73e2 46bd
00000110: daf6 c6bc a027 c6bd fbb8 973d 9f8b 323b
00000120: 81f5 65be 81d2 f43c 08e3 faba 94bd dbbd
00000130: 2043 98bc fac3 68bd c600 f5bc 936a 413e
00000140: 1a58 2bbe ecaa 373e 649c 1f3b d277 463e
00000150: 90ce 4fbe 9783 4cbb 86d4 8f3d 9e2b c73d
00000160: a03a 9e3d 3be6 093e 9239 193e b46c 7bbe
00000170: 2a12 92bc 2138 1c3e d35d 3fbd f325 83be
00000180: c03f c5bd 7982 74bd 8a08 dfbd fc12 283d
00000190: e068 1d3e d2c5 ef3c 3ce1 bbbd 1eeb 913d
000001a0: 36d5 febd b696 413d d27f 53bd e611 59be
000001b0: 5396 193c d0b7 7d3d afb8 093e 0d9d 02be
000001c0: 7a13 763e 907a 823e b98c 22bc 49b7 68be
000001d0: a71a 5f3d 3828 92be 29a8 00bc 695c ad3d
000001e0: 5a07 1fbe aa1c 673d c919 9fbb 32bb 333d
000001f0: 574e b53c 839c 0ebe d13f 4f3e e71c 85bd
00000200: 2df9 e6bd a92f 0fbe 4ba1 b9bd d8ab cf3d
00000210: 12ff a43b d8ba 78bd 055a a7bb bd97 efbc
00000220: a880 12be e0e7 49bd 2230 87b9 6bc4 343d
00000230: 8759 c2bb c7c9 263d 02c7 5bbb 9fe5 01bd
00000240: b801 1f3e 4f87 a9bb 9e68 313e ab13 853d
00000250: 2854 813d c458 5a3d 861e 193e 9296 08be
00000260: a16e b73d 6330 89bd 78c4 6bbd 69c6 d83b
00000270: 33e9 d7bd 6fa1 2dbd ee78 27be 9975 b8bd
00000280: ed88 c1bd 4e4c 59bd 106d 353d 0585 ca3c
00000290: ff9d 013e 8859 d63c e6d3 b53c bd96 733d
000002a0: 9c60 bf3c 095a 25bc bad3 34bd d41f 96bc
000002b0: 6d5d c43d b04c ccbd bb83 cdbd 0706 303d
000002c0: 7eb0 2c3a 0b64 073e fac3 00be a887 493d
000002d0: a03a 8ebd 4a65 d83b 209f 59be 9bea bcbb
000002e0: 49f4 b33c 82af 87bd db3e 26be d520 03bd
000002f0: f13e 17be c6cc cdbd 6411 81bd 7395 eb3d
00000300: c5ad a03c d0b2 20be e045 5ebd f61c 8f3d
00000310: 5514 453d 8487 2bbd 6575 cd3c 1dc1 babd
00000320: 4879 debd cffb bb3c 701a b93c 765f 603e
00000330: 49ca 993c 09dd af3d 9484 1fbd d1e1 a53d
00000340: 933c a83d 5c31 b5bd 62a8 a6bd baef 29be
00000350: 3a52 2ebc f08b a6bd f73d e1bd 2730 aebd
00000360: 7305 eebd dccf bf3d 293b 0abe 2631 d8bc
00000370: 54e7 0b3e c60d 02be 9229 1abe d218 99bc
00000380: 74ac 1b3d d802 0fbd 27e6 04bd 4a66 4fbb
00000390: 00e6 87bc 6e71 3abe ceeb 8abd e167 1ebd
000003a0: a57a ca3d 459e 2ebe b598 973d 81a8 13bd
000003b0: 9eef 29bd 8dce 773d 5a1a fa3d ebea d63d
000003c0: b92d aabd ec29 c1bc b01a 9b3e b94e 8cbe
000003d0: 43e4 3d3d 55fe b6bd 2f18 3d3d fa07 73bd
000003e0: 0fe5 193d eb01 133d 1ca9 3e3e 779b 863b
000003f0: e52b 193e d218 833e 4bed 58bc 1713 14be
0.068768725 0.18414022 0.03465065 0.05130568 0.074111424 0.035690054 0.05215785 0.12542094
0.24922389 -0.014747928 0.046336677 -0.04617804 -0.07316384 0.040285893 0.24592882 0.04889896
-0.056711733 0.086761214 0.04536765 0.021442877 -0.11927649 0.19081628 -0.09782624 0.06205006
0.33117586 0.3298684 0.13669625 -0.12793224 0.07316261 0.11654361 0.17382896 0.14482735
-0.16080977 -0.2829886 0.08711156 -0.026642865 0.1758695 -0.10055666 0.049693953 -0.13024057
0.07015163 0.18237424 0.051064327 0.06641039 -0.110237926 -0.14352696 0.20443152 -0.059289616
-0.14107542 -0.15125015 0.24156621 0.035946615 -0.058868617 0.12311794 0.11795718 -0.22948346
-0.111971356 -0.12559702 -0.011064748 -0.054926608 0.0646733 -0.3454227 -0.09984899 0.0741152
-0.14565006 -0.07129079 0.10362023 -0.048555803 -0.02428763 -0.096755266 0.07408329 0.0027243865
-0.22456934 0.029885532 -0.0019141147 -0.107295185 -0.018586695 -0.056827523 -0.029907595 0.18888311
-0.16732827 0.17936295 0.002435469 0.19381645 -0.20293641 -0.0031206363 0.070229575 0.09725116
0.077260256 0.13466732 0.14963368 -0.24553186 -0.017830927 0.15255786 -0.046720337 -0.2561489
-0.096313 -0.05969474 -0.108903006 0.04103373 0.15372038 0.029269133 -0.091738194 0.07124923
-0.124430105 0.04726287 -0.05163557 -0.21198234 0.009374219 0.061942875 0.13449357 -0.12755223
0.24030867 0.25484133 -0.009921246 -0.22726168 0.054468777 -0.2854631 -0.0078525925 0.084648915
-0.15530148 0.05642382 -0.0048553688 0.043879695 0.022132082 -0.13926892 0.20239188 -0.06499653
-0.11277995 -0.13983025 -0.09063967 0.101401985 0.0050352896 -0.060725063 -0.0051071667 -0.02924716
-0.14306891 -0.0492934 -0.00025785068 0.04413263 -0.0059310826 0.040719774 -0.0033535366 -0.031713124
0.15528 -0.0051736007 0.17325065 0.06497892 0.0631488 0.05330731 0.1495305 -0.13338688
0.08956648 -0.06698682 -0.057560414 0.006615449 -0.10542526 -0.042390283 -0.16354725 -0.09006805
-0.09449945 -0.053051285 0.044293463 0.024721632 0.12657927 0.026165739 0.022195768 0.059469927
0.023361497 -0.010092267 -0.04414723 -0.018325724 0.09588132 -0.099755645 -0.10034891 0.042974498
0.00065875787 0.13221757 -0.12574759 0.049201638 -0.069447756 0.0066038715 -0.21252108 -0.005765272
0.02196707 -0.06625272 -0.16234915 -0.032013733 -0.14770104 -0.10048823 -0.06302145 0.115031146
0.01961411 -0.15693212 -0.054265857 0.06987946 0.048115093 -0.041877285 0.025080392 -0.09118865
-0.10862976 0.02294722 0.022595614 0.21911415 0.018773215 0.08587081 -0.038944796 0.08099712
0.082146786 -0.08847305 -0.08137585 -0.16595355 -0.0106397215 -0.0813216 -0.10998147 -0.08505278
-0.11622133 0.09365818 -0.1349913 -0.026390623 0.13662463 -0.12700567 -0.1505492 -0.018688593
0.03800626 -0.03491482 -0.032446053 -0.0031646662 -0.016589165 -0.18207332 -0.067832574 -0.038673285
0.09886674 -0.17052563 0.074021734 -0.03604937 -0.041488282 0.060499717 0.122120574 0.10494026
-0.08309502 -0.02357956 0.30293798 -0.2740381 0.046360265 -0.08935229 0.04616564 -0.05933378
0.037571963 0.0358905 0.18619198 0.0041078883 0.1495815 0.25604874 -0.013240169 -0.14460407

linear1.bias f4 [84]
00000000: 58cb 2b3e 9ac1 bf3d b8ce 063e 77d1 013e
00000010: 9fa1 963d 2693 ba3d 2272 083e f248 273e
00000020: 18af 003e e9f5 ba3c 59e4 153e 1b7e fe3d
00000030: c075 fe3d 086c d83d 5c09 ac3d 66a5 f83d
00000040: f3fa 933d 361e f03d aac4 c83d 1f8a b83d
00000050: 99a2 093e 58e4 583d 3ce3 9d3d eee6 d93d
00000060: 0dff a93d afcd 493e d6c6 be3d 99d0 083e
00000070: b6fd 033e c4ef 303e c972 b43d 5343 9f3d
00000080: 6331 ef3d 48df 1d3e b893 1a3e 1945 ff3d
00000090: 3d6c d63d 1162 b33d 23a8 0b3e e9af 983d
000000a0: 8fa1 a33d 6d7b 063e 12ec ed3d 6ba0 ef3d
000000b0: 8f64 153e aebd 153e f0b7 dd3d a245 c93d
000000c0: e59f 9e3d 8991 033e 36d4 123e 6c04 b53d
000000d0: 1407 023e 5f9f ba3d 1616 a43d eaeb 173e
000000e0: 6153 1c3e 343e a83d 50e9 d63d 6e78 f43d
000000f0: 37d7 1c3d 117b 2a3e 7c09 243e 84eb 103e
00000100: 2933 a83d 2efd c13d c8e8 0e3e 5f46 093e
00000110: be05 143e 0414 aa3d ff05 6f3c a10e b83d
00000120: 9dc1 903d b127 b33d 45cd 963d ce55 f93d
00000130: 164d 203e cb92 d43d 93bf 2e3e 1e1e a33d
00000140: e0b3 693d 11ce a93d a25e ac3d 1e0e d13d
0.16776788 0.093630984 0.13164794 0.12677561 0.073550455 0.091100976 0.13324788 0.1633642
0.12566793 0.022822337 0.14637889 0.124263965 0.12424803 0.1056748 0.08400223 0.12140922
0.07225599 0.11724512 0.09803136 0.090107195 0.13440932 0.05295214 0.07709357 0.106397495
0.083006 0.19707368 0.09315269 0.13360824 0.12889752 0.17278963 0.08810956 0.07776513
0.11679342 0.15417206 0.15095413 0.12464351 0.104698636 0.08758939 0.13638358 0.07455427
0.07989799 0.1313302 0.116172925 0.11700519 0.14589141 0.14623138 0.10826099 0.098277345
0.07745341 0.12848486 0.14338765 0.08838734 0.12698013 0.09112429 0.08012025 0.14836088
0.15266182 0.08214989 0.104937196 0.11937033 0.038291182 0.16648509 0.16019243 0.14152342
0.08212883 0.09472118 0.13955986 0.1340575 0.14455315 0.08304599 0.014588832 0.08987165
0.07068179 0.08747805 0.07363371 0.12174569 0.15654406 0.10379561 0.17065267 0.07964729
0.057056308 0.08291257 0.08416487 0.10207771

linear2.weight f4 [10, 84]
00000000: 709e 1a3e 4b5a 98be 9b2e 85bd 2dd8 23be
00000010: a0b4 cebd 300f 7bbc 67b5 c43e 5183 0c3d
00000020: 67f7 093d fd6f e4bd 07b6 5a3d 0852 26bb
00000030: fd71 11be ecad a7be f13d 933c f14d 64bd
00000040: d22c 91be 02c1 92bd 4c5f 823c 3c7a a9bb
00000050: d80f ac3e e313 b9be ef57 e63c c391 69be
00000060: 7fee 32be 18d7 413d ac86 1d3e 6bda ab3d
00000070: b7a5 933d 019c 87be 6cac 1cbd fc16 8c3e
00000080: 9cd2 993d 8681 b5bd 273d 753e e15e 9fbe
00000090: 636b 943d 9f35 b7bd 8b67 69be d1aa b0bd
000000a0: 5150 8ebd f3d5 e6bd de8c 743d 0977 0ebf
000000b0: c5dd 873c 946d d3bc ff94 96be 1971 143d
000000c0: 3379 a6bd 7990 12bd 3af0 99bd dd74 03bd
000000d0: 0519 11bd 5d85 4abe c042 3b3e 6052 923e
000000e0: 6aa5 7e3d 410c c93d 86c2 4b3e f5aa 053e
000000f0: e10c 3cbd 73cc b9bd bb6f 58be 329e ba3d
00000100: 3ec4 963d 87cc 87be 6114 2bbd 7811 f5bb
00000110: a107 84bd a6fa f7be 35ac 3ebe 5a90 89bd
00000120: cd7a ff3d 5b85 f23d 78d5 983d e373 253d
00000130: c036 023e b1b8 083f fba2 223e e286 e83d
00000140: 4359 893d ec2a 54bc db90 ac3d fac4 acbd
00000150: 8b59 95be 64be bc3d 3ab7 f9bd c373 703e
00000160: 570c b83e e9f7 4f3e a15b e6bd 9bdb 1c3e
00000170: 99ef 0ebe 39ac 993e 9d34 35be 4aea 4a3e
00000180: da56 92bd 8200 333d d052 a53e 4056 723e
00000190: bcd6 a1bd bc47 d5bd 77bc 71be 7e0c 0c3e
000001a0: 6526 11be f308 57be 0da3 8abe a530 c5be
000001b0: 9fb2 1c3e 8e55 8bbe a644 d9bd 313f 4b3d
000001c0: b151 0f3e c56e 1c3e 4819 58bb 76ca 6cbc
000001d0: 44da cabd 08ee bbbe b26c 2cbe 9f0b 9cbe
000001e0: ccf0 713d 12bd 3e3e 407f 573e 3db9 473e
000001f0: 7946 e1bd f059 aabe 100c c5be 3622 1c3e
00000200: a3e0 903d b2c6 533e 5495 9d3e 5dac 833e
00000210: 9816 c8bc 7202 69be 56d3 8fbe 16bc aabc
00000220: 3596 4a3d 5fc9 3dbe f1cb 043e 0920 51be
00000230: 83a6 3bbe 4d9b b83d 332e 3abc 48fb 04be
00000240: 7927 b13e 3532 cebe 127a aa3e dcf1 083e
00000250: 085c ac3c 7442 be3e ea8a 2bbd c1be 0fbe
00000260: d583 86be 6613 c3be b2cc fa3d 22d4 7d3e
00000270: 0563 06be ead8 82be 9f8e 1fbe 0838 703e
00000280: 4142 24bd 4f4e 10bf c6cd 193e 0dcc e2bd
00000290: 3944 143e 9e5f df3d 03e3 9d3d e2a3 bcbe
000002a0: 63f4 10bc 781c 163c 72b9 303e a5b4 023e
000002b0: d93e 34bf d6ed d9be c065 443e 3111 a13d
000002c0: a55c 683e 9af9 a3bd 183f af3d 51d2 ea3c
000002d0: 3f48 57be 49ee 983d 2581 03bf b13b 943e
000002e0: 975e f33d 3347 a4be 2e82 0a3e 03ef 003d
000002f0: a501 37be 0bb3 9cbe 6c52 e8bd c61f c13c
00000300: e340 903d d8ba 1b3e c39f 443d c45a 143d
00000310: 13dd 603e f8c8 cabc 669a b9be 4b4c 953e
00000320: 2ad0 ab3c 87ce 0b3e f26d 7a3e 6aef 04be
00000330: e746 c4be 0461 6fbe 58e6 583d 61fa 25be
00000340: df60 073d bae6 03be 80bf 1abe ba58 84bd
00000350: 3e18 9abc 774d 03be 4876 8fbd 5fa1 65be
00000360: f532 b7bd 1d44 a0bd d9d7 30bc 41e2 bcbc
00000370: bc81 1f3e b69a e23d 0cfd cfbe 3634 0d3b
00000380: 82f6 3f3e 8ff6 09be f451 71bd 4199 8cbc
00000390: aefd a3be ceb9 19be e212 833e 4448 49bd
000003a0: d030 20be 2e32 1bbe 03bc 003e 4a40 64bd
000003b0: 613b 023f 5460 a9be 03db 3fbe 21e6 783e
000003c0: 2c82 b1be 9caf 3e3d 1c44 3abd 4bbe d23c
000003d0: 0528 cabd 3ef0 7ebe 1c63 323e 3d65 55be
000003e0: e831 6ebd 036f 9abd 797c efbe c70c 573d
000003f0: 2f2b 19bd 4041 c63e 5fa7 bb3d 86d7 c7be
0.15099502 -0.29756388 -0.0650303 -0.16000433 -0.10093045 -0.015323445 0.3841965 0.03430492
0.033683207 -0.111541726 0.05339625 -0.0025378484 -0.1420364 -0.3274988 0.017973872 -0.055738393
-0.28354508 -0.071657196 0.015914582 -0.005172042 0.33605838 -0.36147985 0.028118102 -0.2280951
-0.17473792 0.04732427 0.15383404 0.08391269 0.07209342 -0.2648621 -0.03825037 0.27361286
0.07510874 -0.08862595 0.23949109 -0.31127074 0.07247045 -0.08945774 -0.22793405 -0.08626331
-0.06948913 -0.11271276 0.059704654 -0.55650383 0.01658524 -0.025809087 -0.2941055 0.03624067
-0.08128586 -0.03578231 -0.07516523 -0.03209387 -0.03542425 -0.19777437 0.18287182 0.28578472
0.06216947 0.0981679 0.19898424 0.13053496 -0.04591072 -0.09072199 -0.21136372 0.091122046
0.07361649 -0.2652323 -0.04176748 -0.007478889 -0.064467676 -0.48433417 -0.1862038 -0.06716986
0.12474594 0.11841842 0.07462591 0.04039372 0.12716198 0.53406817 0.15882485 0.11353852
0.067064784 -0.0129496865 0.084260665 -0.08436008 -0.29169878 0.09216002 -0.12193151 0.2348166
0.35946915 0.20309414 -0.112479456 0.15318148 -0.13958587 0.30014208 -0.17695852 0.19815937
-0.07145472 0.043701656 0.32289743 0.23665714 -0.079022855 -0.10414073 -0.2360705 0.1367664
-0.14174803 -0.20999508 -0.27077523 -0.38513675 0.15302514 -0.2721371 -0.10608797 0.04962081
0.13996007 0.1527663 -0.0032974053 -0.014452567 -0.09904912 -0.3670504 -0.16838339 -0.30477616
0.059067532 0.18626812 0.21044636 0.19504257 -0.1099977 -0.33271742 -0.38485765 0.15247425
0.07074096 0.20681265 0.3077799 0.2571744 -0.024424836 -0.22754839 -0.28090924 -0.02084164
0.049459655 -0.18533848 0.12968422 -0.20422377 -0.18325238 0.09013996 -0.011363554 -0.12986481
0.34600428 -0.4027268 0.33296257 0.13373512 0.021039978 0.37160075 -0.041880526 -0.1403761
-0.26272455 -0.38100737 0.12246074 0.24787953 -0.1312371 -0.25556117 -0.1558175 0.23458874
-0.040102247 -0.5636949 0.15019903 -0.11074076 0.1447915 0.109069094 0.07709315 -0.36843783
-0.008847329 0.009162061 0.17258242 0.12764223 -0.704084 -0.42564267 0.1917944 0.07864607
0.22691591 -0.08006592 0.08556956 0.02866474 -0.21023653 0.07467324 -0.51368934 0.2895179
0.11883276 -0.3208557 0.13526222 0.03147794 -0.17871721 -0.3060535 -0.11343846 0.023574721
0.07043626 0.15207994 0.048003923 0.036219373 0.21959333 -0.024754032 -0.3625061 0.2915977
0.020973284 0.13653003 0.24456003 -0.12981954 -0.38335344 -0.23376852 0.052954048 -0.16208793
0.033051368 -0.12880984 -0.15112114 -0.06462236 -0.018810388 -0.12822519 -0.07004982 -0.2242484
-0.08945266 -0.078254916 -0.01079365 -0.023057105 0.15576833 0.11064665 -0.40622747 0.0021546013
0.18746379 -0.13472961 -0.058916047 -0.01716292 -0.3202948 -0.15012285 0.25600344 -0.049141183
-0.1564362 -0.15155861 0.12571721 -0.055725373 0.50871855 -0.33081305 -0.1873589 0.24306537
-0.34669626 0.046554193 -0.04547511 0.025725504 -0.09870914 -0.24896333 0.1742062 -0.208394
-0.058153063 -0.07540705 -0.46774653 0.05250242 -0.0373947 0.38721657 0.09162783 -0.3903162

linear2.bias f4 [10]
00000000: 9d4f ca3d 891a 273d d4e5 163e 84ab b13d
00000010: f52c 913d 7242 4b3d 527d 0a3e 0e00 083e
00000020: 7a99 e03d 6196 a03d
0.09878466 0.04079679 0.1473611 0.08675292 0.07088653 0.049623914 0.13524368 0.13281271
0.10966773 0.078411825
